{"modelTopology":{"class_name":"Model","config":{"name":"model2","layers":[{"name":"input1","class_name":"InputLayer","config":{"batch_input_shape":[null,4000],"dtype":"float32","sparse":false,"name":"input1"},"inbound_nodes":[]},{"name":"input2","class_name":"InputLayer","config":{"batch_input_shape":[null,4000],"dtype":"float32","sparse":false,"name":"input2"},"inbound_nodes":[]},{"name":"dense_Dense1","class_name":"Dense","config":{"units":1000,"activation":"linear","use_bias":true,"kernel_initializer":{"class_name":"VarianceScaling","config":{"scale":1,"mode":"fan_avg","distribution":"normal","seed":null}},"bias_initializer":{"class_name":"Zeros","config":{}},"kernel_regularizer":null,"bias_regularizer":null,"activity_regularizer":null,"kernel_constraint":null,"bias_constraint":null,"name":"dense_Dense1","trainable":true},"inbound_nodes":[[["input1",0,0,{}]]]},{"name":"dense_Dense2","class_name":"Dense","config":{"units":1000,"activation":"linear","use_bias":true,"kernel_initializer":{"class_name":"VarianceScaling","config":{"scale":1,"mode":"fan_avg","distribution":"normal","seed":null}},"bias_initializer":{"class_name":"Zeros","config":{}},"kernel_regularizer":null,"bias_regularizer":null,"activity_regularizer":null,"kernel_constraint":null,"bias_constraint":null,"name":"dense_Dense2","trainable":true},"inbound_nodes":[[["input2",0,0,{}]]]},{"name":"concatLayer","class_name":"Concatenate","config":{"axis":1,"name":"concatLayer","trainable":true},"inbound_nodes":[[["dense_Dense1",0,0,{}],["dense_Dense2",0,0,{}]]]},{"name":"concatLayerDense","class_name":"Dense","config":{"units":1,"activation":"linear","use_bias":true,"kernel_initializer":{"class_name":"VarianceScaling","config":{"scale":1,"mode":"fan_avg","distribution":"normal","seed":null}},"bias_initializer":{"class_name":"Zeros","config":{}},"kernel_regularizer":null,"bias_regularizer":null,"activity_regularizer":null,"kernel_constraint":null,"bias_constraint":null,"name":"concatLayerDense","trainable":true},"inbound_nodes":[[["concatLayer",0,0,{}]]]}],"input_layers":[["input1",0,0],["input2",0,0]],"output_layers":[["concatLayerDense",0,0]]},"keras_version":"tfjs-layers 0.8.5","backend":"tensor_flow.js"},"weightsManifest":[{"paths":["weights.bin"],"weights":[{"name":"dense_Dense1/kernel","shape":[4000,1000],"dtype":"float32"},{"name":"dense_Dense1/bias","shape":[1000],"dtype":"float32"},{"name":"dense_Dense2/kernel","shape":[4000,1000],"dtype":"float32"},{"name":"dense_Dense2/bias","shape":[1000],"dtype":"float32"},{"name":"concatLayerDense/kernel","shape":[2000,1],"dtype":"float32"},{"name":"concatLayerDense/bias","shape":[1],"dtype":"float32"}]}]}